Fixed


**************************************************
fixed method: Targeted repair


**************************************************
After repairing, error prone input's mean relatively error is: 0.0000000754


**************************************************
After repairing, mean relatively error is: 0.0000000000


**************************************************
The best recommendation:

#[version = "0.0.5"]
def @main(%x0: Tensor[(6), float32] /* ty=Tensor[(6), float32] span=from_string:15:12 */, hash="22e4e55f039c3c34") -> (Tensor[(6), float32],) {
  %0 = cast(%x0, dtype="float64") /* ty=Tensor[(6), float64] span=from_string:5:14 */;
  %1 = trunc(%0) /* ty=Tensor[(6), float64] span=from_string:6:12 */;
  %2 = abs(%1) /* ty=Tensor[(6), float64] span=from_string:7:12 */;
  %3 = cos(%2) /* ty=Tensor[(6), float64] span=from_string:8:16 */;
  %4 = sigmoid(%3) /* ty=Tensor[(6), float64] span=from_string:9:18 */;
  %5 = transpose(%4, axes=[0]) /* ty=Tensor[(6), float64] span=from_string:10:18 */;
  %6 = fast_tanh(%5) /* ty=Tensor[(6), float64] span=from_string:11:16 */;
  %7 = nn.relu(%6) /* ty=Tensor[(6), float64] span=from_string:12:12 */;
  %8 = abs(%7) /* ty=Tensor[(6), float64] span=from_string:13:8 */;
  %9 = cast(%8, dtype="float32") /* ty=Tensor[(6), float32] span=from_string:4:3 */;
  (%9,) /* ty=(Tensor[(6), float32],) span=from_string:3:3 */
}



**************************************************
The repair subgraph:

#[version = "0.0.5"]
def @main(%p0: Tensor[(6), float32] /* ty=Tensor[(6), float32] span=from_string:3:13 */) -> Tensor[(6), float32] {
  %0 = cast(%p0, dtype="float64") /* ty=Tensor[(6), float64] span=from_string:4:14 */;
  %1 = trunc(%0) /* ty=Tensor[(6), float64] span=from_string:5:12 */;
  %2 = abs(%1) /* ty=Tensor[(6), float64] span=from_string:6:12 */;
  %3 = cos(%2) /* ty=Tensor[(6), float64] span=from_string:7:16 */;
  %4 = sigmoid(%3) /* ty=Tensor[(6), float64] span=from_string:8:18 */;
  %5 = transpose(%4, axes=[0]) /* ty=Tensor[(6), float64] span=from_string:9:18 */;
  %6 = fast_tanh(%5) /* ty=Tensor[(6), float64] span=from_string:10:16 */;
  %7 = nn.relu(%6) /* ty=Tensor[(6), float64] span=from_string:11:12 */;
  %8 = abs(%7) /* ty=Tensor[(6), float64] span=from_string:12:8 */;
  cast(%8, dtype="float32") /* ty=Tensor[(6), float32] span=from_string:3:3 */
}
