#[version = "0.0.5"]
def @main(%pzx: Tensor[(64), float32] /* ty=Tensor[(64), float32] */) -> (Tensor[(64), float32],) {
  %0 = add(meta[relay.Constant][1] /* ty=Tensor[(64), float32] span=from_string:3:17 */, %pzx) /* ty=Tensor[(64), float32] span=from_string:4:43 */;
  %1 = multiply(meta[relay.Constant][0] /* ty=Tensor[(64), float32] span=from_string:4:23 */, %0) /* ty=Tensor[(64), float32] span=from_string:5:7 */;
  %2 = add(%1, meta[relay.Constant][2] /* ty=Tensor[(64), float32] span=from_string:5:16 */) /* ty=Tensor[(64), float32] span=from_string:3:3 */;
  %3 = ceil(%2) /* ty=Tensor[(64), float32] span=from_string:4:14 */;
  %4 = abs(%3) /* ty=Tensor[(64), float32] span=from_string:5:18 */;
  %5 = sigmoid(%4) /* ty=Tensor[(64), float32] span=from_string:6:20 */;
  %6 = transpose(%5, axes=[0]) /* ty=Tensor[(64), float32] span=from_string:7:15 */;
  %7 = ceil(%6) /* ty=Tensor[(64), float32] span=from_string:8:18 */;
  %8 = nn.relu(%7) /* ty=Tensor[(64), float32] span=from_string:9:14 */;
  %9 = abs(%8) /* ty=Tensor[(64), float32] span=from_string:10:14 */;
  %10 = tan(%9) /* ty=Tensor[(64), float32] span=from_string:11:15 */;
  %11 = tanh(%10) /* ty=Tensor[(64), float32] span=from_string:12:15 */;
  %12 = tanh(%11) /* ty=Tensor[(64), float32] span=from_string:13:6 */;
  (%12,) /* ty=(Tensor[(64), float32],) span=from_string:3:5 */
}

#[metadata]
{
  "root": 1, 
  "nodes": [
    {
      "type_key": ""
    }, 
    {
      "type_key": "Map", 
      "keys": [
        "relay.Constant"
      ], 
      "data": [2]
    }, 
    {
      "type_key": "Array", 
      "data": [3, 11, 16]
    }, 
    {
      "type_key": "relay.Constant", 
      "attrs": {
        "_checked_type_": "8", 
        "data": "0", 
        "span": "6", 
        "virtual_device_": "4"
      }
    }, 
    {
      "type_key": "VirtualDevice", 
      "attrs": {
        "device_type_int": "-1", 
        "memory_scope": "5", 
        "target": "0", 
        "virtual_device_id": "-1"
      }
    }, 
    {
      "type_key": "runtime.String"
    }, 
    {
      "type_key": "Span", 
      "attrs": {
        "column": "23", 
        "end_column": "41", 
        "end_line": "4", 
        "line": "4", 
        "source_name": "7"
      }
    }, 
    {
      "type_key": "SourceName", 
      "repr_str": "from_string"
    }, 
    {
      "type_key": "relay.TensorType", 
      "attrs": {
        "dtype": "float32", 
        "shape": "9", 
        "span": "0"
      }
    }, 
    {
      "type_key": "Array", 
      "data": [10]
    }, 
    {
      "type_key": "IntImm", 
      "attrs": {
        "dtype": "int32", 
        "span": "0", 
        "value": "64"
      }
    }, 
    {
      "type_key": "relay.Constant", 
      "attrs": {
        "_checked_type_": "13", 
        "data": "1", 
        "span": "12", 
        "virtual_device_": "4"
      }
    }, 
    {
      "type_key": "Span", 
      "attrs": {
        "column": "17", 
        "end_column": "35", 
        "end_line": "3", 
        "line": "3", 
        "source_name": "7"
      }
    }, 
    {
      "type_key": "relay.TensorType", 
      "attrs": {
        "dtype": "float32", 
        "shape": "14", 
        "span": "0"
      }
    }, 
    {
      "type_key": "Array", 
      "data": [15]
    }, 
    {
      "type_key": "IntImm", 
      "attrs": {
        "dtype": "int32", 
        "span": "0", 
        "value": "64"
      }
    }, 
    {
      "type_key": "relay.Constant", 
      "attrs": {
        "_checked_type_": "18", 
        "data": "2", 
        "span": "17", 
        "virtual_device_": "4"
      }
    }, 
    {
      "type_key": "Span", 
      "attrs": {
        "column": "16", 
        "end_column": "34", 
        "end_line": "5", 
        "line": "5", 
        "source_name": "7"
      }
    }, 
    {
      "type_key": "relay.TensorType", 
      "attrs": {
        "dtype": "float32", 
        "shape": "19", 
        "span": "0"
      }
    }, 
    {
      "type_key": "Array", 
      "data": [20]
    }, 
    {
      "type_key": "IntImm", 
      "attrs": {
        "dtype": "int32", 
        "span": "0", 
        "value": "64"
      }
    }
  ], 
  "b64ndarrays": [
    "…", 
    "…", 
    "…"
  ], 
  "attrs": {"tvm_version": "0.12.dev0"}
}